Model: "sequential"
_________________________________________________________________
 Layer (type)                Output Shape              Param #
=================================================================
 conv2d (Conv2D)             (None, 78, 78, 32)        896

 max_pooling2d (MaxPooling2D  (None, 39, 39, 32)       0
 )

 conv2d_1 (Conv2D)           (None, 37, 37, 32)        9248

 max_pooling2d_1 (MaxPooling  (None, 18, 18, 32)       0
 2D)

 flatten (Flatten)           (None, 10368)             0

 dropout (Dropout)           (None, 10368)             0

 dense (Dense)               (None, 128)               1327232

 dense_1 (Dense)             (None, 75)                9675

=================================================================
Total params: 1,347,051
Trainable params: 1,347,051
Non-trainable params: 0
_________________________________________________________________
Epoch 1/60
1260/1260 [==============================] - 11s 8ms/step - loss: 4.2766 - accuracy: 0.0310 - val_loss: 4.3714 - val_accuracy: 0.0178
Epoch 2/60
1260/1260 [==============================] - 12s 9ms/step - loss: 4.1568 - accuracy: 0.0429 - val_loss: 4.5000 - val_accuracy: 0.0311
…
