Found 1260 images belonging to 75 classes.
Found 225 images belonging to 75 classes.
Model: "sequential"
_________________________________________________________________
 Layer (type)                Output Shape              Param #
=================================================================
 conv2d (Conv2D)             (None, 78, 78, 64)        1792

 max_pooling2d (MaxPooling2D  (None, 39, 39, 64)       0
 )

 conv2d_1 (Conv2D)           (None, 37, 37, 32)        18464

 max_pooling2d_1 (MaxPooling  (None, 18, 18, 32)       0
 2D)

 flatten (Flatten)           (None, 10368)             0

 dropout (Dropout)           (None, 10368)             0

 dense (Dense)               (None, 256)               2654464

 dense_1 (Dense)             (None, 128)               32896

 dense_2 (Dense)             (None, 75)                9675

=================================================================
Total params: 2,717,291
Trainable params: 2,717,291
Non-trainable params: 0
_________________________________________________________________
Epoch 1/60
2022-01-10 12:17:59.777182: I tensorflow/stream_executor/cuda/cuda_dnn.cc:366] Loaded cuDNN version 8101
1260/1260 [==============================] - 9s 5ms/step - loss: 4.2938 - accuracy: 0.0254 - val_loss: 4.3744 - val_accuracy: 0.0133
…
