Model: "sequential"
_________________________________________________________________
 Layer (type)                Output Shape              Param #
=================================================================
 conv2d (Conv2D)             (None, 78, 78, 64)        1792

 max_pooling2d (MaxPooling2D  (None, 39, 39, 64)       0
 )

 conv2d_1 (Conv2D)           (None, 37, 37, 32)        18464

 max_pooling2d_1 (MaxPooling  (None, 18, 18, 32)       0
 2D)

 flatten (Flatten)           (None, 10368)             0

 dropout (Dropout)           (None, 10368)             0

 dense (Dense)               (None, 256)               2654464

 dense_1 (Dense)             (None, 75)                19275

=================================================================
Total params: 2,693,995
Trainable params: 2,693,995
Non-trainable params: 0
_________________________________________________________________
Epoch 1/60
1260/1260 [==============================] - 21s 16ms/step - loss: 4.2831 - accuracy: 0.0341 - val_loss: 4.4376 - val_accuracy: 0.0178
Epoch 2/60
1260/1260 [==============================] - 21s 17ms/step - loss: 4.1128 - accuracy: 0.0548 - val_loss: 4.2933 - val_accuracy: 0.0222
…
